…
tion":{"iopub.status.busy":"2024-09-05T19:30:12.343263Z","iopub.execute_input":"2024-09-05T19:30:12.344080Z","iopub.status.idle":"2024-09-05T19:30:12.354180Z","shell.execute_reply.started":"2024-09-05T19:30:12.344038Z","shell.execute_reply":"2024-09-05T19:30:12.351927Z"},"trusted":true},"execution_count":11,"outputs":[{"name":"stdout","text":"Model: \"sequential_2\"\n_________________________________________________________________\nLayer (type)                 Output Shape              Param #   \n=================================================================\nconv2d_10 (Conv2D)           (None, 222, 222, 32)      896       \n_________________________________________________________________\nmax_pooling2d_10 (MaxPooling (None, 111, 111, 32)      0         \n_________________________________________________________________\nconv2d_11 (Conv2D)           (None, 109, 109, 64)      18496     \n_________________________________________________________________\nmax_pooling2d_11 (MaxPooling (None, 54, 54, 64)        0         \n_________________________________________________________________\nconv2d_12 (Conv2D)           (None, 52, 52, 128)       73856     \n_________________________________________________________________\nmax_pooling2d_12 (MaxPooling (None, 26, 26, 128)       0         \n_________________________________________________________________\nconv2d_13 (Conv2D)           (None, 24, 24, 128)       147584    \n_________________________________________________________________\nmax_pooling2d_13 (MaxPooling (None, 12, 12, 128)       0         \n_________________________________________________________________\nconv2d_14 (Conv2D)           (None, 10, 10, 256)       295168    \n_________________________________________________________________\nmax_pooling2d_14 (MaxPooling (None, 5, 5, 256)         0         \n_________________________________________________________________\nglobal_average_pooling2d_2 ( (None, 256)               0         \n_________________________________________________________________\ndense_2 (Dense)              (None, 1)                 257       \n=================================================================\nTotal params: 536,257\nTrainable params: 536,257\nNon-trainable params: 0\n_________________________________________________________________\n","output_type":"stream"}]},{"cell_type":"code","source":"my_model.compile(loss='binary_crossentropy',\n                 optimizer=tf.keras.optimizers.SGD(),\n                 metric
…
